{"class_name": "Model", "keras_version": "2.1.5", "config": {"layers": [{"class_name": "InputLayer", "config": {"dtype": "int32", "batch_input_shape": [null, 1000], "name": "input_1", "sparse": false}, "inbound_nodes": [], "name": "input_1"}, {"class_name": "Embedding", "config": {"embeddings_initializer": {"class_name": "RandomUniform", "config": {"maxval": 0.05, "seed": null, "minval": -0.05}}, "name": "embedding_1", "dtype": "float32", "output_dim": 100, "trainable": false, "embeddings_regularizer": null, "input_dim": 20000, "mask_zero": false, "embeddings_constraint": null, "batch_input_shape": [null, 1000], "activity_regularizer": null, "input_length": 1000}, "inbound_nodes": [[["input_1", 0, 0, {}]]], "name": "embedding_1"}, {"class_name": "Conv1D", "config": {"kernel_constraint": null, "kernel_initializer": {"class_name": "VarianceScaling", "config": {"distribution": "uniform", "scale": 1.0, "seed": null, "mode": "fan_avg"}}, "name": "conv1d_1", "bias_regularizer": null, "bias_constraint": null, "activation": "relu", "trainable": true, "padding": "valid", "strides": [1], "dilation_rate": [1], "kernel_regularizer": null, "filters": 128, "bias_initializer": {"class_name": "Zeros", "config": {}}, "use_bias": true, "activity_regularizer": null, "kernel_size": [5]}, "inbound_nodes": [[["embedding_1", 0, 0, {}]]], "name": "conv1d_1"}, {"class_name": "MaxPooling1D", "config": {"padding": "valid", "strides": [5], "trainable": true, "name": "max_pooling1d_1", "pool_size": [5]}, "inbound_nodes": [[["conv1d_1", 0, 0, {}]]], "name": "max_pooling1d_1"}, {"class_name": "Conv1D", "config": {"kernel_constraint": null, "kernel_initializer": {"class_name": "VarianceScaling", "config": {"distribution": "uniform", "scale": 1.0, "seed": null, "mode": "fan_avg"}}, "name": "conv1d_2", "bias_regularizer": null, "bias_constraint": null, "activation": "relu", "trainable": true, "padding": "valid", "strides": [1], "dilation_rate": [1], "kernel_regularizer": null, "filters": 128, "bias_initializer": {"class_name": "Zeros", "config": {}}, "use_bias": true, "activity_regularizer": null, "kernel_size": [5]}, "inbound_nodes": [[["max_pooling1d_1", 0, 0, {}]]], "name": "conv1d_2"}, {"class_name": "MaxPooling1D", "config": {"padding": "valid", "strides": [5], "trainable": true, "name": "max_pooling1d_2", "pool_size": [5]}, "inbound_nodes": [[["conv1d_2", 0, 0, {}]]], "name": "max_pooling1d_2"}, {"class_name": "Conv1D", "config": {"kernel_constraint": null, "kernel_initializer": {"class_name": "VarianceScaling", "config": {"distribution": "uniform", "scale": 1.0, "seed": null, "mode": "fan_avg"}}, "name": "conv1d_3", "bias_regularizer": null, "bias_constraint": null, "activation": "relu", "trainable": true, "padding": "valid", "strides": [1], "dilation_rate": [1], "kernel_regularizer": null, "filters": 128, "bias_initializer": {"class_name": "Zeros", "config": {}}, "use_bias": true, "activity_regularizer": null, "kernel_size": [5]}, "inbound_nodes": [[["max_pooling1d_2", 0, 0, {}]]], "name": "conv1d_3"}, {"class_name": "GlobalMaxPooling1D", "config": {"trainable": true, "name": "global_max_pooling1d_1"}, "inbound_nodes": [[["conv1d_3", 0, 0, {}]]], "name": "global_max_pooling1d_1"}, {"class_name": "Dense", "config": {"kernel_initializer": {"class_name": "VarianceScaling", "config": {"distribution": "uniform", "scale": 1.0, "seed": null, "mode": "fan_avg"}}, "name": "dense_1", "kernel_constraint": null, "bias_regularizer": null, "bias_constraint": null, "activation": "relu", "trainable": true, "kernel_regularizer": null, "bias_initializer": {"class_name": "Zeros", "config": {}}, "units": 128, "use_bias": true, "activity_regularizer": null}, "inbound_nodes": [[["global_max_pooling1d_1", 0, 0, {}]]], "name": "dense_1"}, {"class_name": "Dense", "config": {"kernel_initializer": {"class_name": "VarianceScaling", "config": {"distribution": "uniform", "scale": 1.0, "seed": null, "mode": "fan_avg"}}, "name": "dense_2", "kernel_constraint": null, "bias_regularizer": null, "bias_constraint": null, "activation": "softmax", "trainable": true, "kernel_regularizer": null, "bias_initializer": {"class_name": "Zeros", "config": {}}, "units": 20, "use_bias": true, "activity_regularizer": null}, "inbound_nodes": [[["dense_1", 0, 0, {}]]], "name": "dense_2"}], "input_layers": [["input_1", 0, 0]], "output_layers": [["dense_2", 0, 0]], "name": "model_1"}, "backend": "tensorflow"}